…
poch_start=0, exp_name='Dim24[2,3,3,4]Stage3Usingwavelength', gpu_id=0, learning_rate=0.0002, nc=32, num_epochs=300, pan_root='/PublicData/xmm/NBU_dataset0730', save_dir='/PublicData/xmm/project/UnifiedPansharpening/experiment')
[2025-05-24 13:16:29,941][train_pansharpeningNotext.py][line:90][INFO] model params: 6.019837 M
[2025-05-24 13:16:29,946][train_pansharpeningNotext.py][line:91][INFO] Network Structure: DURE2D_3DWithAdaptiveConv(
  (H4): DynamicChannelAdaptation(
    (pos_encoder): SinusoidalTimeEmbedding()
    (wavelength_embedding): ModuleList(
      (0-3): 4 x Sequential(
        (0): Linear(in_features=320, out_features=1, bias=True)
        (1): GELU(approximate='none')
        (2): Linear(in_features=1, out_features=1, bias=True)
      )
    )
    (transformer): TransformerEncoder(
      (layers): ModuleList(
        (0-1): 2 x TransformerEncoderLayer(
          (self_attn): MultiheadAttention(
            (out_proj): NonDynamicallyQuantizableLinear(in_features=1, out_features=1, bias=True)
          )
          (linear1): Linear(in_features=1, out_features=2048, bias=True)
          (dropout): Dropout(p=0.1, inplace=False)
          (linear2): Linear(in_features=2048, out_features=1, bias=True)
          (norm1): LayerNorm((1,), eps=1e-05, elementwise_affine=True)
          (norm2): LayerNorm((1,), eps=1e-05, elementwise_affine=True)
          (dropout1): Dropout(p=0.1, inplace=False)
          (dropout2): Dropout(p=0.1, inplace=False)
        )
      )
    )
    (weight_generator): Sequential(
      (0): Linear(in_features=1, out_features=49, bias=True)
      (1): GELU(approximate='none')
      (2): Linear(in_features=49, out_features=49, bias=True)
    )
    (bias_generator): Sequential(
      (0): Linear(in_features=1, out_features=1, bias=True)
      (1): GELU(approximate='none')
      (2): Linear(in_features=1, out_features=1, bias=True)
    )
  )
  (HT4): DynamicChannelAdaptation(
    (pos_encoder): SinusoidalTimeEmbedding()
    (wavelength_embedding): ModuleList(
      (0-3): 4 x Sequential(
        (0): Linear(in_features=320, out_features=4, bias=True)
        (1): GELU(approximate='none')
        (2): Linear(in_features=4, out_features=4, bias=True)
      )
    )
    (transformer): TransformerEncoder(
      (layers): ModuleList(
        (0-1): 2 x TransformerEncoderLayer(
          (self_attn): MultiheadAttention(
            (out_proj): NonDynamicallyQuantizableLinear(in_features=4, out_features=4, bias=True)
          )
          (linear1): Linear(in_features=4, out_features=2048, bias=True)
          (dropout): Dropout(p=0.1, inplace=False)
          (linear2): Linear(in_features=2048, out_features=4, bias=True)
          (norm1): LayerNorm((4,), eps=1e-05, elementwise_affine=True)
          (norm2): LayerNorm((4,), eps=1e-05, elementwise_affine=True)
          (dropout1): Dropout(p=0.1, inplace=False)
          (dropout2): Dropout(p=0.1, inplace=False)
        )
      )
    )
    (weight_generator): Sequential(
      (0): Linear(in_features=4, out_features=49, bias=True)
      (1): GELU(approximate='none')
      (2): Linear(in_features=49, out_features=49, bias=True)
    )
    (bias_generator): Sequential(
      (0): Linear(in_features=4, out_features=4, bias=True)
      (1): GELU(approximate='none')
      (2): Linear(in_features=4, out_features=4, bias=True)
    )
  )
  (D4): DynamicChannelAdaptation(
    (pos_encoder): SinusoidalTimeEmbedding()
    (wavelength_embedding): ModuleList(
      (0-3): 4 x Sequential(
        (0): Linear(in_features=320, out_features=4, bias=True)
        (1): GELU(approximate='none')
        (2): Linear(in_features=4, out_features=4, bias=True)
      )
    )
    (transformer): TransformerEncoder(
      (layers): ModuleList(
        (0-1): 2 x TransformerEncoderLayer(
          (self_attn): MultiheadAttention(
            (out_proj): NonDynamicallyQuantizableLinear(in_features=4, out_features=4, bias=True)
          )
          (linear1): Linear(in_features=4, out_features=2048, bias=True)
          (dropout): Dropout(p=0.1, inplace=False)
          (linear2): Linear(in_features=2048, out_features=4, bias=True)
          (norm1): LayerNorm((4,), eps=1e-05, elementwise_affine=True)
          (norm2): LayerNorm((4,), eps=1e-05, elementwise_affine=True)
          (dropout1): Dropout(p=0.1, inplace=False)
          (dropout2): Dropout(p=0.1, inplace=False)
        )
      )
    )
    (weight_generator): Sequential(
      (0): Linear(in_features=4, out_features=196, bias=True)
      (1): GELU(approximate='none')
      (2): Linear(in_features=196, out_features=196, bias=True)
    )
    (bias_generator): Sequential(
      (0): Linear(in_features=4, out_features=4, bias=True)
      (1): GELU(approximate='none')
      (2): Linear(in_features=4, out_features=4, bias=True)
    )
  )
  (DT4): DynamicChannelAdaptation(
    (pos_encoder): SinusoidalTimeEmbedding()
    (wavelength_embedding): ModuleList(
      (0-3): 4 x Sequential(
        (0): Linear(in_features=320, out_features=4, bias=True)
        (1): GELU(approximate='none')
        (2): Linear(in_features=4, out_features=4, bias=True)
      )
    )
    (transformer): TransformerEncoder(
      (layers): ModuleList(
        (0-1): 2 x TransformerEncoderLayer(
          (self_attn): MultiheadAttention(
            (out_proj): NonDynamicallyQuantizableLinear(in_features=4, out_features=4, bias=True)
          )
          (linear1): Linear(in_features=4, out_features=2048, bias=True)
          (dropout): Dropout(p=0.1, inplace=False)
          (linear2): Linear(in_features=2048, out_features=4, bias=True)
          (norm1): LayerNorm((4,), eps=1e-05, elementwise_affine=True)
          (norm2): LayerNorm((4,), eps=1e-05, elementwise_affine=True)
          (dropout1): Dropout(p=0.1, inplace=False)
          (dropout2): Dropout(p=0.1, inplace=False)
        )
      )
    )
    (weight_generator): Sequential(
      (0): Linear(in_features=4, out_features=196, bias=True)
      (1): GELU(approximate='none')
      (2): Linear(in_features=196, out_features=196, bias=True)
    )
    (bias_generator): Sequential(
      (0): Linear(in_features=4, out_features=4, bias=True)
      (1): GELU(approximate='none')
      (2): Linear(in_features=4, out_features=4, bias=True)
    )
  )
  (H8): DynamicChannelAdaptation(
    (pos_encoder): SinusoidalTimeEmbedding()
    (wavelength_embedding): ModuleList(
      (0-7): 8 x Sequential(
        (0): Linear(in_features=320, out_features=1, bias=True)
        (1): GELU(approximate='none')
        (2): Linear(in_features=1, out_features=1, bias=True)
      )
    )
    (transformer): TransformerEncoder(
      (layers): ModuleList(
        (0-1): 2 x TransformerEncoderLayer(
          (self_attn): MultiheadAttention(
            (out_proj): NonDynamicallyQuantizableLinear(in_features=1, out_features=1, bias=True)
          )
          (linear1): Linear(in_features=1, out_features=2048, bias=True)
          (dropout): Dropout(p=0.1, inplace=False)
          (linear2): Linear(in_features=2048, out_features=1, bias=True)
          (norm1): LayerNorm((1,), eps=1e-05, elementwise_affine=True)
          (norm2): LayerNorm((1,), eps=1e-05, elementwise_affine=True)
          (dropout1): Dropout(p=0.1, inplace=False)
          (dropout2): Dropout(p=0.1, inplace=False)
        )
      )
    )
    (weight_generator): Sequential(
      (0): Linear(in_features=1, out_features=49, bias=True)
      (1): GELU(approximate='none')
      (2): Linear(in_features=49, out_features=49, bias=True)
    )
    (bias_generator): Sequential(
      (0): Linear(in_features=1, out_features=1, bias=True)
      (1): GELU(approximate='none')
      (2): Linear(in_features=1, out_features=1, bias=True)
    )
  )
  (HT8): DynamicChannelAdaptation(
    (pos_encoder): SinusoidalTimeEmbedding()
    (wavelength_embedding): ModuleList(
      (0-7): 8 x Sequential(
        (0): Linear(in_features=320, out_features=8, bias=True)
        (1): GELU(approximate='none')
        (2): Linear(in_features=8, out_features=8, bias=True)
      )
    )
    (transformer): TransformerEncoder(
      (layers): ModuleList(
        (0-1): 2 x TransformerEncoderLayer(
          (self_attn): MultiheadAttention(
            (out_proj): NonDynamicallyQuantizableLinear(in_features=8, out_features=8, bias=True)
          )
          (linear1): Linear(in_features=8, out_features=2048, bias=True)
          (dropout): Dropout(p=0.1, inplace=False)
          (linear2): Linear(in_features=2048, out_features=8, bias=True)
          (norm1): LayerNorm((8,), eps=1e-05, elementwise_affine=True)
          (norm2): LayerNorm((8,), eps=1e-05, elementwise_affine=True)
          (dropout1): Dropout(p=0.1, inplace=False)
          (dropout2): Dropout(p=0.1, inplace=False)
        )
      )
    )
    (weight_generator): Sequential(
      (0): Linear(in_features=8, out_features=49, bias=True)
      (1): GELU(approximate='none')
      (2): Linear(in_features=49, out_features=49, bias=True)
    )
    (bias_generator): Sequential(
      (0): Linear(in_features=8, out_features=8, bias=True)
      (1): GELU(approximate='none')
      (2): Linear(in_features=8, out_features=8, bias=True)
    )
  )
  (D8): DynamicChannelAdaptation(
    (pos_encoder): SinusoidalTimeEmbedding()
    (wavelength_embedding): ModuleList(
      (0-7): 8 x Sequential(
        (0): Linear(in_features=320, out_features=8, bias=True)
        (1): GELU(approximate='none')
        (2): Linear(in_features=8, out_features=8, bias=True)
      )
    )
    (transformer): TransformerEncoder(
      (layers): ModuleList(
        (0-1): 2 x TransformerEncoderLayer(
          (self_attn): MultiheadAttention(
            (out_proj): NonDynamicallyQuantizableLinear(in_features=8, out_features=8, bias=True)
          )
          (linear1): Linear(in_features=8, out_features=2048, bias=True)
          (dropout): Dropout(p=0.1, inplace=False)
          (linear2): Linear(in_features=2048, out_features=8, bias=True)
          (norm1): LayerNorm((8,), eps=1e-05, elementwise_affine=True)
          (norm2): LayerNorm((8,), eps=1e-05, elementwise_affine=True)
          (dropout1): Dropout(p=0.1, inplace=False)
          (dropout2): Dropout(p=0.1, inplace=False)
        )
      )
    )
    (weight_generator): Sequential(
      (0): Linear(in_features=8, out_features=392, bias=True)
      (1): GELU(approximate='none')
      (2): Linear(in_features=392, out_features=392, bias=True)
    )
    (bias_generator): Sequential(
      (0): Linear(in_features=8, out_features=8, bias=True)
      (1): GELU(approximate='none')
      (2): Linear(in_features=8, out_features=8, bias=True)
    )
  )
  (DT8): DynamicChannelAdaptation(
    (pos_encoder): SinusoidalTimeEmbedding()
    (wavelength_embedding): ModuleList(
      (0-7): 8 x Sequential(
        (0): Linear(in_features=320, out_features=8, bias=True)
        (1): GELU(approximate='none')
        (2): Linear(in_features=8, out_features=8, bias=True)
      )
    )
    (transformer): TransformerEncoder(
      (layers): ModuleList(
        (0-1): 2 x TransformerEncoderLayer(
          (self_attn): MultiheadAttention(
            (out_proj): NonDynamicallyQuantizableLinear(in_features=8, out_features=8, bias=True)
          )
          (linear1): Linear(in_features=8, out_features=2048, bias=True)
          (dropout): Dropout(p=0.1, inplace=False)
          (linear2): Linear(in_features=2048, out_features=8, bias=True)
          (norm1): LayerNorm((8,), eps=1e-05, elementwise_affine=True)
          (norm2): LayerNorm((8,), eps=1e-05, elementwise_affine=True)
          (dropout1): Dropout(p=0.1, inplace=False)
          (dropout2): Dropout(p=0.1, inplace=False)
        )
      )
    )
    (weight_generator): Sequential(
      (0): Linear(in_features=8, out_features=392, bias=True)
      (1): GELU(approximate='none')
      (2): Linear(in_features=392, out_features=392, bias=True)
    )
    (bias_generator): Sequential(
      (0): Linear(in_features=8, out_features=8, bias=True)
      (1): GELU(approximate='none')
      (2): Linear(in_features=8, out_features=8, bias=True)
    )
  )
  (proxNet): SpatialChannelPrompt(
    (patch_embed4): OverlapPatchEmbed(
      (proj): Conv2d(4, 24, kernel_size=(3, 3), stride=(1, 1), padding=(1, 1), bias=False)
    )
    (patch_embed8): OverlapPatchEmbed(
      (proj): Conv2d(8, 24, kernel_size=(3, 3), stride=(1, 1), padding=(1, 1), bias=False)
    )
    (encoder_prompt_dim0): SpaChaPromptGenBlock(
      (linear_layer_spatial): Linear(in_features=24, out_features=5, bias=True)
      (linear_layer_spectral): Linear(in_features=24, out_features=5, bias=True)
      (conv): Conv2d(48, 24, kernel_size=(1, 1), stride=(1, 1), bias=False)
    )
    (encoder_prompt_dim1): SpaChaPromptGenBlock(
      (linear_layer_spatial): Linear(in_features=48, out_features=5, bias=True)
      (linear_layer_spectral): Linear(in_features=48, out_features=5, bias=True)
      (conv): Conv2d(96, 48, kernel_size=(1, 1), stride=(1, 1), bias=False)
    )
    (encoder_prompt_dim2): SpaChaPromptGenBlock(
      (linear_layer_spatial): Linear(in_features=96, out_features=5, bias=True)
      (linear_layer_spectral): Linear(in_features=96, out_features=5, bias=True)
      (conv): Conv2d(192, 96, kernel_size=(1, 1), stride=(1, 1), bias=False)
    )
    (encoder_prompt_dim3): SpaChaPromptGenBlock(
      (linear_layer_spatial): Linear(in_features=192, out_features=5, bias=True)
      (linear_layer_spectral): Linear(in_features=192, out_features=5, bias=True)
      (conv): Conv2d(384, 192, kernel_size=(1, 1), stride=(1, 1), bias=False)
    )
    (decoder_prompt_dim2): SpaChaPromptGenBlock(
      (linear_layer_spatial): Linear(in_features=96, out_features=5, bias=True)
      (linear_layer_spectral): Linear(in_features=96, out_features=5, bias=True)
      (conv): Conv2d(192, 96, kernel_size=(1, 1), stride=(1, 1), bias=False)
    )
    (decoder_prompt_dim1): SpaChaPromptGenBlock(
      (linear_layer_spatial): Linear(in_features=48, out_features=5, bias=True)
      (linear_layer_spectral): Linear(in_features=48, out_features=5, bias=True)
      (conv): Conv2d(96, 48, kernel_size=(1, 1), stride=(1, 1), bias=False)
    )
    (decoder_prompt_dim0): SpaChaPromptGenBlock(
      (linear_layer_spatial): Linear(in_features=48, out_features=5, bias=True)
      (linear_layer_spectral): Linear(in_features=48, out_features=5, bias=True)
      (conv): Conv2d(96, 48, kernel_size=(1, 1), stride=(1, 1), bias=False)
    )
    (encoder_level1): Sequential(
      (0): TransformerBlock(
        (norm1): LayerNorm(
          (body): WithBias_LayerNorm()
        )
        (attn): Attention(
          (qkv): Conv2d(24, 72, kernel_size=(1, 1), stride=(1, 1), bias=False)
          (qkv_dwconv): Conv2d(72, 72, kernel_size=(3, 3), stride=(1, 1), padding=(1, 1), groups=72, bias=False)
          (project_out): Conv2d(24, 24, kernel_size=(1, 1), stride=(1, 1), bias=False)
        )
        (norm2): LayerNorm(
          (body): WithBias_LayerNorm()
        )
        (ffn): FeedForward(
          (project_in): Conv2d(24, 126, kernel_size=(1, 1), stride=(1, 1), bias=False)
          (dwconv): Conv2d(126, 126, kernel_size=(3, 3), stride=(1, 1), padding=(1, 1), groups=126, bias=False)
          (project_out): Conv2d(63, 24, kernel_size=(1, 1), stride=(1, 1), bias=False)
        )
      )
      (1): TransformerBlock(
        (norm1): LayerNorm(
          (body): WithBias_LayerNorm()
        )
        (attn): Attention(
          (qkv): Conv2d(24, 72, kernel_size=(1, 1), stride=(1, 1), bias=False)
          (qkv_dwconv): Conv2d(72, 72, kernel_size=(3, 3), stride=(1, 1), padding=(1, 1), groups=72, bias=False)
          (project_out): Conv2d(24, 24, kernel_size=(1, 1), stride=(1, 1), bias=False)
        )
        (norm2): LayerNorm(
          (body): WithBias_LayerNorm()
        )
        (ffn): FeedForward(
          (project_in): Conv2d(24, 126, kernel_size=(1, 1), stride=(1, 1), bias=False)
          (dwconv): Conv2d(126, 126, kernel_size=(3, 3), stride=(1, 1), padding=(1, 1), groups=126, bias=False)
          (project_out): Conv2d(63, 24, kernel_size=(1, 1), stride=(1, 1), bias=False)
        )
      )
    )
    (down1_2): Downsample(
      (body): Sequential(
        (0): Conv2d(24, 12, kernel_size=(3, 3), stride=(1, 1), padding=(1, 1), bias=False)
        (1): PixelUnshuffle(downscale_factor=2)
      )
    )
    (encoder_level2): Sequential(
      (0): TransformerBlock(
        (norm1): LayerNorm(
          (body): WithBias_LayerNorm()
        )
        (attn): Attention(
          (qkv): Conv2d(48, 144, kernel_size=(1, 1), stride=(1, 1), bias=False)
          (qkv_dwconv): Conv2d(144, 144, kernel_size=(3, 3), stride=(1, 1), padding=(1, 1), groups=144, bias=False)
          (project_out): Conv2d(48, 48, kernel_size=(1, 1), stride=(1, 1), bias=False)
        )
        (norm2): LayerNorm(
          (body): WithBias_LayerNorm()
        )
        (ffn): FeedForward(
          (project_in): Conv2d(48, 254, kernel_size=(1, 1), stride=(1, 1), bias=False)
          (dwconv): Conv2d(254, 254, kernel_size=(3, 3), stride=(1, 1), padding=(1, 1), groups=254, bias=False)
          (project_out): Conv2d(127, 48, kernel_size=(1, 1), stride=(1, 1), bias=False)
        )
      )
      (1): TransformerBlock(
        (norm1): LayerNorm(
          (body): WithBias_LayerNorm()
        )
        (attn): Attention(
          (qkv): Conv2d(48, 144, kernel_size=(1, 1), stride=(1, 1), bias=False)
          (qkv_dwconv): Conv2d(144, 144, kernel_size=(3, 3), stride=(1, 1), padding=(1, 1), groups=144, bias=False)
          (project_out): Conv2d(48, 48, kernel_size=(1, 1), stride=(1, 1), bias=False)
        )
        (norm2): LayerNorm(
          (body): WithBias_LayerNorm()
        )
        (ffn): FeedForward(
          (project_in): Conv2d(48, 254, kernel_size=(1, 1), stride=(1, 1), bias=False)
          (dwconv): Conv2d(254, 254, kernel_size=(3, 3), stride=(1, 1), padding=(1, 1), groups=254, bias=False)
          (project_out): Conv2d(127, 48, kernel_size=(1, 1), stride=(1, 1), bias=False)
        )
      )
      (2): TransformerBlock(
        (norm1): LayerNorm(
          (body): WithBias_LayerNorm()
        )
        (attn): Attention(
          (qkv): Conv2d(48, 144, kernel_size=(1, 1), stride=(1, 1), bias=False)
          (qkv_dwconv): Conv2d(144, 144, kernel_size=(3, 3), stride=(1, 1), padding=(1, 1), groups=144, bias=False)
          (project_out): Conv2d(48, 48, kernel_size=(1, 1), stride=(1, 1), bias=False)
        )
        (norm2): LayerNorm(
          (body): WithBias_LayerNorm()
        )
        (ffn): FeedForward(
          (project_in): Conv2d(48, 254, kernel_size=(1, 1), stride=(1, 1), bias=False)
          (dwconv): Conv2d(254, 254, kernel_size=(3, 3), stride=(1, 1), padding=(1, 1), groups=254, bias=False)
          (project_out): Conv2d(127, 48, kernel_size=(1, 1), stride=(1, 1), bias=False)
        )
      )
    )
    (down2_3): Downsample(
      (body): Sequential(
        (0): Conv2d(48, 24, kernel_size=(3, 3), stride=(1, 1), padding=(1, 1), bias=False)
        (1): PixelUnshuffle(downscale_factor=2)
      )
    )
    (encoder_level3): Sequential(
      (0): TransformerBlock(
        (norm1): LayerNorm(
          (body): WithBias_LayerNorm()
        )
        (attn): Attention(
          (qkv): Conv2d(96, 288, kernel_size=(1, 1), stride=(1, 1), bias=False)
          (qkv_dwconv): Conv2d(288, 288, kernel_size=(3, 3), stride=(1, 1), padding=(1, 1), groups=288, bias=False)
          (project_out): Conv2d(96, 96, kernel_size=(1, 1), stride=(1, 1), bias=False)
        )
        (norm2): LayerNorm(
          (body): WithBias_LayerNorm()
        )
        (ffn): FeedForward(
          (project_in): Conv2d(96, 510, kernel_size=(1, 1), stride=(1, 1), bias=False)
          (dwconv): Conv2d(510, 510, kernel_size=(3, 3), stride=(1, 1), padding=(1, 1), groups=510, bias=False)
          (project_out): Conv2d(255, 96, kernel_size=(1, 1), stride=(1, 1), bias=False)
        )
      )
      (1): TransformerBlock(
        (norm1): LayerNorm(
          (body): WithBias_LayerNorm()
        )
        (attn): Attention(
          (qkv): Conv2d(96, 288, kernel_size=(1, 1), stride=(1, 1), bias=False)
          (qkv_dwconv): Conv2d(288, 288, kernel_size=(3, 3), stride=(1, 1), padding=(1, 1), groups=288, bias=False)
          (project_out): Conv2d(96, 96, kernel_size=(1, 1), stride=(1, 1), bias=False)
        )
        (norm2): LayerNorm(
          (body): WithBias_LayerNorm()
        )
        (ffn): FeedForward(
          (project_in): Conv2d(96, 510, kernel_size=(1, 1), stride=(1, 1), bias=False)
          (dwconv): Conv2d(510, 510, kernel_size=(3, 3), stride=(1, 1), padding=(1, 1), groups=510, bias=False)
          (project_out): Conv2d(255, 96, kernel_size=(1, 1), stride=(1, 1), bias=False)
        )
      )
      (2): TransformerBlock(
        (norm1): LayerNorm(
          (body): WithBias_LayerNorm()
        )
        (attn): Attention(
          (qkv): Conv2d(96, 288, kernel_size=(1, 1), stride=(1, 1), bias=False)
          (qkv_dwconv): Conv2d(288, 288, kernel_size=(3, 3), stride=(1, 1), padding=(1, 1), groups=288, bias=False)
          (project_out): Conv2d(96, 96, kernel_size=(1, 1), stride=(1, 1), bias=False)
        )
        (norm2): LayerNorm(
          (body): WithBias_LayerNorm()
        )
        (ffn): FeedForward(
          (project_in): Conv2d(96, 510, kernel_size=(1, 1), stride=(1, 1), bias=False)
          (dwconv): Conv2d(510, 510, kernel_size=(3, 3), stride=(1, 1), padding=(1, 1), groups=510, bias=False)
          (project_out): Conv2d(255, 96, kernel_size=(1, 1), stride=(1, 1), bias=False)
        )
      )
    )
    (down3_4): Downsample(
      (body): Sequential(
        (0): Conv2d(96, 48, kernel_size=(3, 3), stride=(1, 1), padding=(1, 1), bias=False)
        (1): PixelUnshuffle(downscale_factor=2)
      )
    )
    (latent): Sequential(
      (0): TransformerBlock(
        (norm1): LayerNorm(
          (body): WithBias_LayerNorm()
        )
        (attn): Attention(
          (qkv): Conv2d(192, 576, kernel_size=(1, 1), stride=(1, 1), bias=False)
          (qkv_dwconv): Conv2d(576, 576, kernel_size=(3, 3), stride=(1, 1), padding=(1, 1), groups=576, bias=False)
          (project_out): Conv2d(192, 192, kernel_size=(1, 1), stride=(1, 1), bias=False)
        )
        (norm2): LayerNorm(
          (body): WithBias_LayerNorm()
        )
        (ffn): FeedForward(
          (project_in): Conv2d(192, 1020, kernel_size=(1, 1), stride=(1, 1), bias=False)
          (dwconv): Conv2d(1020, 1020, kernel_size=(3, 3), stride=(1, 1), padding=(1, 1), groups=1020, bias=False)
          (project_out): Conv2d(510, 192, kernel_size=(1, 1), stride=(1, 1), bias=False)
        )
      )
      (1): TransformerBlock(
        (norm1): LayerNorm(
          (body): WithBias_LayerNorm()
        )
        (attn): Attention(
          (qkv): Conv2d(192, 576, kernel_size=(1, 1), stride=(1, 1), bias=False)
          (qkv_dwconv): Conv2d(576, 576, kernel_size=(3, 3), stride=(1, 1), padding=(1, 1), groups=576, bias=False)
          (project_out): Conv2d(192, 192, kernel_size=(1, 1), stride=(1, 1), bias=False)
        )
        (norm2): LayerNorm(
          (body): WithBias_LayerNorm()
        )
        (ffn): FeedForward(
          (project_in): Conv2d(192, 1020, kernel_size=(1, 1), stride=(1, 1), bias=False)
          (dwconv): Conv2d(1020, 1020, kernel_size=(3, 3), stride=(1, 1), padding=(1, 1), groups=1020, bias=False)
          (project_out): Conv2d(510, 192, kernel_size=(1, 1), stride=(1, 1), bias=False)
        )
      )
      (2): TransformerBlock(
        (norm1): LayerNorm(
          (body): WithBias_LayerNorm()
        )
        (attn): Attention(
          (qkv): Conv2d(192, 576, kernel_size=(1, 1), stride=(1, 1), bias=False)
          (qkv_dwconv): Conv2d(576, 576, kernel_size=(3, 3), stride=(1, 1), padding=(1, 1), groups=576, bias=False)
          (project_out): Conv2d(192, 192, kernel_size=(1, 1), stride=(1, 1), bias=False)
        )
        (norm2): LayerNorm(
          (body): WithBias_LayerNorm()
        )
        (ffn): FeedForward(
          (project_in): Conv2d(192, 1020, kernel_size=(1, 1), stride=(1, 1), bias=False)
          (dwconv): Conv2d(1020, 1020, kernel_size=(3, 3), stride=(1, 1), padding=(1, 1), groups=1020, bias=False)
          (project_out): Conv2d(510, 192, kernel_size=(1, 1), stride=(1, 1), bias=False)
        )
      )
      (3): TransformerBlock(
        (norm1): LayerNorm(
          (body): WithBias_LayerNorm()
        )
        (attn): Attention(
          (qkv): Conv2d(192, 576, kernel_size=(1, 1), stride=(1, 1), bias=False)
          (qkv_dwconv): Conv2d(576, 576, kernel_size=(3, 3), stride=(1, 1), padding=(1, 1), groups=576, bias=False)
          (project_out): Conv2d(192, 192, kernel_size=(1, 1), stride=(1, 1), bias=False)
        )
        (norm2): LayerNorm(
          (body): WithBias_LayerNorm()
        )
        (ffn): FeedForward(
          (project_in): Conv2d(192, 1020, kernel_size=(1, 1), stride=(1, 1), bias=False)
          (dwconv): Conv2d(1020, 1020, kernel_size=(3, 3), stride=(1, 1), padding=(1, 1), groups=1020, bias=False)
          (project_out): Conv2d(510, 192, kernel_size=(1, 1), stride=(1, 1), bias=False)
        )
      )
    )
    (up4_3): Upsample(
      (body): Sequential(
        (0): Conv2d(192, 384, kernel_size=(3, 3), stride=(1, 1), padding=(1, 1), bias=False)
        (1): PixelShuffle(upscale_factor=2)
      )
    )
    (reduce_chan_level3): Conv2d(192, 96, kernel_size=(1, 1), stride=(1, 1), bias=False)
    (decoder_level3): Sequential(
      (0): TransformerBlock(
        (norm1): LayerNorm(
          (body): WithBias_LayerNorm()
        )
        (attn): Attention(
          (qkv): Conv2d(96, 288, kernel_size=(1, 1), stride=(1, 1), bias=False)
          (qkv_dwconv): Conv2d(288, 288, kernel_size=(3, 3), stride=(1, 1), padding=(1, 1), groups=288, bias=False)
          (project_out): Conv2d(96, 96, kernel_size=(1, 1), stride=(1, 1), bias=False)
        )
        (norm2): LayerNorm(
          (body): WithBias_LayerNorm()
        )
        (ffn): FeedForward(
          (project_in): Conv2d(96, 510, kernel_size=(1, 1), stride=(1, 1), bias=False)
          (dwconv): Conv2d(510, 510, kernel_size=(3, 3), stride=(1, 1), padding=(1, 1), groups=510, bias=False)
          (project_out): Conv2d(255, 96, kernel_size=(1, 1), stride=(1, 1), bias=False)
        )
      )
      (1): TransformerBlock(
        (norm1): LayerNorm(
          (body): WithBias_LayerNorm()
        )
        (attn): Attention(
          (qkv): Conv2d(96, 288, kernel_size=(1, 1), stride=(1, 1), bias=False)
          (qkv_dwconv): Conv2d(288, 288, kernel_size=(3, 3), stride=(1, 1), padding=(1, 1), groups=288, bias=False)
          (project_out): Conv2d(96, 96, kernel_size=(1, 1), stride=(1, 1), bias=False)
        )
        (norm2): LayerNorm(
          (body): WithBias_LayerNorm()
        )
        (ffn): FeedForward(
          (project_in): Conv2d(96, 510, kernel_size=(1, 1), stride=(1, 1), bias=False)
          (dwconv): Conv2d(510, 510, kernel_size=(3, 3), stride=(1, 1), padding=(1, 1), groups=510, bias=False)
          (project_out): Conv2d(255, 96, kernel_size=(1, 1), stride=(1, 1), bias=False)
        )
      )
      (2): TransformerBlock(
        (norm1): LayerNorm(
          (body): WithBias_LayerNorm()
        )
        (attn): Attention(
          (qkv): Conv2d(96, 288, kernel_size=(1, 1), stride=(1, 1), bias=False)
          (qkv_dwconv): Conv2d(288, 288, kernel_size=(3, 3), stride=(1, 1), padding=(1, 1), groups=288, bias=False)
          (project_out): Conv2d(96, 96, kernel_size=(1, 1), stride=(1, 1), bias=False)
        )
        (norm2): LayerNorm(
          (body): WithBias_LayerNorm()
        )
        (ffn): FeedForward(
          (project_in): Conv2d(96, 510, kernel_size=(1, 1), stride=(1, 1), bias=False)
          (dwconv): Conv2d(510, 510, kernel_size=(3, 3), stride=(1, 1), padding=(1, 1), groups=510, bias=False)
          (project_out): Conv2d(255, 96, kernel_size=(1, 1), stride=(1, 1), bias=False)
        )
      )
    )
    (up3_2): Upsample(
      (body): Sequential(
        (0): Conv2d(96, 192, kernel_size=(3, 3), stride=(1, 1), padding=(1, 1), bias=False)
        (1): PixelShuffle(upscale_factor=2)
      )
    )
    (reduce_chan_level2): Conv2d(96, 48, kernel_size=(1, 1), stride=(1, 1), bias=False)
    (decoder_level2): Sequential(
      (0): TransformerBlock(
        (norm1): LayerNorm(
          (body): WithBias_LayerNorm()
        )
        (attn): Attention(
          (qkv): Conv2d(48, 144, kernel_size=(1, 1), stride=(1, 1), bias=False)
          (qkv_dwconv): Conv2d(144, 144, kernel_size=(3, 3), stride=(1, 1), padding=(1, 1), groups=144, bias=False)
          (project_out): Conv2d(48, 48, kernel_size=(1, 1), stride=(1, 1), bias=False)
        )
        (norm2): LayerNorm(
          (body): WithBias_LayerNorm()
        )
        (ffn): FeedForward(
          (project_in): Conv2d(48, 254, kernel_size=(1, 1), stride=(1, 1), bias=False)
          (dwconv): Conv2d(254, 254, kernel_size=(3, 3), stride=(1, 1), padding=(1, 1), groups=254, bias=False)
          (project_out): Conv2d(127, 48, kernel_size=(1, 1), stride=(1, 1), bias=False)
        )
      )
      (1): TransformerBlock(
        (norm1): LayerNorm(
          (body): WithBias_LayerNorm()
        )
        (attn): Attention(
          (qkv): Conv2d(48, 144, kernel_size=(1, 1), stride=(1, 1), bias=False)
          (qkv_dwconv): Conv2d(144, 144, kernel_size=(3, 3), stride=(1, 1), padding=(1, 1), groups=144, bias=False)
          (project_out): Conv2d(48, 48, kernel_size=(1, 1), stride=(1, 1), bias=False)
        )
        (norm2): LayerNorm(
          (body): WithBias_LayerNorm()
        )
        (ffn): FeedForward(
          (project_in): Conv2d(48, 254, kernel_size=(1, 1), stride=(1, 1), bias=False)
          (dwconv): Conv2d(254, 254, kernel_size=(3, 3), stride=(1, 1), padding=(1, 1), groups=254, bias=False)
          (project_out): Conv2d(127, 48, kernel_size=(1, 1), stride=(1, 1), bias=False)
        )
      )
      (2): TransformerBlock(
        (norm1): LayerNorm(
          (body): WithBias_LayerNorm()
        )
        (attn): Attention(
          (qkv): Conv2d(48, 144, kernel_size=(1, 1), stride=(1, 1), bias=False)
          (qkv_dwconv): Conv2d(144, 144, kernel_size=(3, 3), stride=(1, 1), padding=(1, 1), groups=144, bias=False)
          (project_out): Conv2d(48, 48, kernel_size=(1, 1), stride=(1, 1), bias=False)
        )
        (norm2): LayerNorm(
          (body): WithBias_LayerNorm()
        )
        (ffn): FeedForward(
          (project_in): Conv2d(48, 254, kernel_size=(1, 1), stride=(1, 1), bias=False)
          (dwconv): Conv2d(254, 254, kernel_size=(3, 3), stride=(1, 1), padding=(1, 1), groups=254, bias=False)
          (project_out): Conv2d(127, 48, kernel_size=(1, 1), stride=(1, 1), bias=False)
        )
      )
    )
    (up2_1): Upsample(
      (body): Sequential(
        (0): Conv2d(48, 96, kernel_size=(3, 3), stride=(1, 1), padding=(1, 1), bias=False)
        (1): PixelShuffle(upscale_factor=2)
      )
    )
    (decoder_level1): Sequential(
      (0): TransformerBlock(
        (norm1): LayerNorm(
          (body): WithBias_LayerNorm()
        )
        (attn): Attention(
          (qkv): Conv2d(48, 144, kernel_size=(1, 1), stride=(1, 1), bias=False)
          (qkv_dwconv): Conv2d(144, 144, kernel_size=(3, 3), stride=(1, 1), padding=(1, 1), groups=144, bias=False)
          (project_out): Conv2d(48, 48, kernel_size=(1, 1), stride=(1, 1), bias=False)
        )
        (norm2): LayerNorm(
          (body): WithBias_LayerNorm()
        )
        (ffn): FeedForward(
          (project_in): Conv2d(48, 254, kernel_size=(1, 1), stride=(1, 1), bias=False)
          (dwconv): Conv2d(254, 254, kernel_size=(3, 3), stride=(1, 1), padding=(1, 1), groups=254, bias=False)
          (project_out): Conv2d(127, 48, kernel_size=(1, 1), stride=(1, 1), bias=False)
        )
      )
      (1): TransformerBlock(
        (norm1): LayerNorm(
          (body): WithBias_LayerNorm()
        )
        (attn): Attention(
          (qkv): Conv2d(48, 144, kernel_size=(1, 1), stride=(1, 1), bias=False)
          (qkv_dwconv): Conv2d(144, 144, kernel_size=(3, 3), stride=(1, 1), padding=(1, 1), groups=144, bias=False)
          (project_out): Conv2d(48, 48, kernel_size=(1, 1), stride=(1, 1), bias=False)
        )
        (norm2): LayerNorm(
          (body): WithBias_LayerNorm()
        )
        (ffn): FeedForward(
          (project_in): Conv2d(48, 254, kernel_size=(1, 1), stride=(1, 1), bias=False)
          (dwconv): Conv2d(254, 254, kernel_size=(3, 3), stride=(1, 1), padding=(1, 1), groups=254, bias=False)
          (project_out): Conv2d(127, 48, kernel_size=(1, 1), stride=(1, 1), bias=False)
        )
      )
    )
    (refinement): Sequential(
      (0): TransformerBlock(
        (norm1): LayerNorm(
          (body): WithBias_LayerNorm()
        )
        (attn): Attention(
          (qkv): Conv2d(48, 144, kernel_size=(1, 1), stride=(1, 1), bias=False)
          (qkv_dwconv): Conv2d(144, 144, kernel_size=(3, 3), stride=(1, 1), padding=(1, 1), groups=144, bias=False)
          (project_out): Conv2d(48, 48, kernel_size=(1, 1), stride=(1, 1), bias=False)
        )
        (norm2): LayerNorm(
          (body): WithBias_LayerNorm()
        )
        (ffn): FeedForward(
          (project_in): Conv2d(48, 254, kernel_size=(1, 1), stride=(1, 1), bias=False)
          (dwconv): Conv2d(254, 254, kernel_size=(3, 3), stride=(1, 1), padding=(1, 1), groups=254, bias=False)
          (project_out): Conv2d(127, 48, kernel_size=(1, 1), stride=(1, 1), bias=False)
        )
      )
      (1): TransformerBlock(
        (norm1): LayerNorm(
          (body): WithBias_LayerNorm()
        )
        (attn): Attention(
          (qkv): Conv2d(48, 144, kernel_size=(1, 1), stride=(1, 1), bias=False)
          (qkv_dwconv): Conv2d(144, 144, kernel_size=(3, 3), stride=(1, 1), padding=(1, 1), groups=144, bias=False)
          (project_out): Conv2d(48, 48, kernel_size=(1, 1), stride=(1, 1), bias=False)
        )
        (norm2): LayerNorm(
          (body): WithBias_LayerNorm()
        )
        (ffn): FeedForward(
          (project_in): Conv2d(48, 254, kernel_size=(1, 1), stride=(1, 1), bias=False)
          (dwconv): Conv2d(254, 254, kernel_size=(3, 3), stride=(1, 1), padding=(1, 1), groups=254, bias=False)
          (project_out): Conv2d(127, 48, kernel_size=(1, 1), stride=(1, 1), bias=False)
        )
      )
    )
    (output4): Conv2d(48, 4, kernel_size=(3, 3), stride=(1, 1), padding=(1, 1), bias=False)
    (output8): Conv2d(48, 8, kernel_size=(3, 3), stride=(1, 1), padding=(1, 1), bias=False)
  )
  (proxNetCodeBook): Network3D(
    (conv_in): Conv3d(1, 16, kernel_size=(3, 3, 3), stride=(1, 1, 1), padding=(1, 1, 1))
    (encoder_conv1): Conv3d(16, 16, kernel_size=(3, 3, 3), stride=(1, 1, 1), padding=(1, 1, 1))
    (encoder_256): BasicBlock3D(
      (block): Sequential(
        (0): MSAB3D(
          (blocks): ModuleList(
            (0): ModuleList(
              (0): MS_MSA3D(
                (to_qkv): Linear(in_features=16, out_features=48, bias=False)
                (proj): Linear(in_features=16, out_features=16, bias=True)
                (pos_emb): Sequential(
                  (0): Conv3d(16, 16, kernel_size=(3, 3, 3), stride=(1, 1, 1), padding=(1, 1, 1), groups=16, bias=False)
                  (1): GELU()
                  (2): Conv3d(16, 16, kernel_size=(3, 3, 3), stride=(1, 1, 1), padding=(1, 1, 1), groups=16, bias=False)
                )
              )
              (1): PreNorm(
                (fn): FeedForward3D(
                  (net): Sequential(
                    (0): Conv3d(16, 64, kernel_size=(1, 1, 1), stride=(1, 1, 1), bias=False)
                    (1): GELU()
                    (2): Conv3d(64, 64, kernel_size=(3, 3, 3), stride=(1, 1, 1), padding=(1, 1, 1), groups=64, bias=False)
                    (3): GELU()
                    (4): Conv3d(64, 16, kernel_size=(1, 1, 1), stride=(1, 1, 1), bias=False)
                  )
                )
                (norm): LayerNorm((16,), eps=1e-05, elementwise_affine=True)
              )
            )
          )
        )
      )
    )
    (down1): Conv3d(16, 32, kernel_size=(3, 3, 3), stride=(1, 2, 2), padding=(1, 1, 1))
    (encoder_conv2): Conv3d(32, 32, kernel_size=(3, 3, 3), stride=(1, 1, 1), padding=(1, 1, 1))
    (encoder_128): BasicBlock3D(
      (block): Sequential(
        (0): MSAB3D(
          (blocks): ModuleList(
            (0): ModuleList(
              (0): MS_MSA3D(
                (to_qkv): Linear(in_features=32, out_features=96, bias=False)
                (proj): Linear(in_features=32, out_features=32, bias=True)
                (pos_emb): Sequential(
                  (0): Conv3d(32, 32, kernel_size=(3, 3, 3), stride=(1, 1, 1), padding=(1, 1, 1), groups=32, bias=False)
                  (1): GELU()
                  (2): Conv3d(32, 32, kernel_size=(3, 3, 3), stride=(1, 1, 1), padding=(1, 1, 1), groups=32, bias=False)
                )
              )
              (1): PreNorm(
                (fn): FeedForward3D(
                  (net): Sequential(
                    (0): Conv3d(32, 128, kernel_size=(1, 1, 1), stride=(1, 1, 1), bias=False)
                    (1): GELU()
                    (2): Conv3d(128, 128, kernel_size=(3, 3, 3), stride=(1, 1, 1), padding=(1, 1, 1), groups=128, bias=False)
                    (3): GELU()
                    (4): Conv3d(128, 32, kernel_size=(1, 1, 1), stride=(1, 1, 1), bias=False)
                  )
                )
                (norm): LayerNorm((32,), eps=1e-05, elementwise_affine=True)
              )
            )
          )
        )
      )
    )
    (down2): Conv3d(32, 64, kernel_size=(3, 3, 3), stride=(1, 2, 2), padding=(1, 1, 1))
    (encoder_conv3): Conv3d(64, 64, kernel_size=(3, 3, 3), stride=(1, 1, 1), padding=(1, 1, 1))
    (encoder_64): BasicBlock3D(
      (block): Sequential(
        (0): MSAB3D(
          (blocks): ModuleList(
            (0): ModuleList(
              (0): MS_MSA3D(
                (to_qkv): Linear(in_features=64, out_features=192, bias=False)
                (proj): Linear(in_features=64, out_features=64, bias=True)
                (pos_emb): Sequential(
                  (0): Conv3d(64, 64, kernel_size=(3, 3, 3), stride=(1, 1, 1), padding=(1, 1, 1), groups=64, bias=False)
                  (1): GELU()
                  (2): Conv3d(64, 64, kernel_size=(3, 3, 3), stride=(1, 1, 1), padding=(1, 1, 1), groups=64, bias=False)
                )
              )
              (1): PreNorm(
                (fn): FeedForward3D(
                  (net): Sequential(
                    (0): Conv3d(64, 256, kernel_size=(1, 1, 1), stride=(1, 1, 1), bias=False)
                    (1): GELU()
                    (2): Conv3d(256, 256, kernel_size=(3, 3, 3), stride=(1, 1, 1), padding=(1, 1, 1), groups=256, bias=False)
                    (3): GELU()
                    (4): Conv3d(256, 64, kernel_size=(1, 1, 1), stride=(1, 1, 1), bias=False)
                  )
                )
                (norm): LayerNorm((64,), eps=1e-05, elementwise_affine=True)
              )
            )
          )
        )
      )
    )
    (vq_64): VQModule(
      (quantize): BlockBasedResidualVectorQuantizer3D(
        (embedding): Embedding(1, 1)
        (unfold): Unfold(kernel_size=(2, 2), dilation=1, padding=0, stride=1)
        (shared_codebook): Embedding(1024, 256)
        (task_codebooks): ModuleList(
          (0-3): 4 x Embedding(256, 256)
        )
      )
    )
    (decoder_conv1): Conv3d(64, 64, kernel_size=(3, 3, 3), stride=(1, 1, 1), padding=(1, 1, 1))
    (decoder_64): BasicBlock3D(
      (block): Sequential(
        (0): MSAB3D(
          (blocks): ModuleList(
            (0): ModuleList(
              (0): MS_MSA3D(
                (to_qkv): Linear(in_features=64, out_features=192, bias=False)
                (proj): Linear(in_features=64, out_features=64, bias=True)
                (pos_emb): Sequential(
                  (0): Conv3d(64, 64, kernel_size=(3, 3, 3), stride=(1, 1, 1), padding=(1, 1, 1), groups=64, bias=False)
                  (1): GELU()
                  (2): Conv3d(64, 64, kernel_size=(3, 3, 3), stride=(1, 1, 1), padding=(1, 1, 1), groups=64, bias=False)
                )
              )
              (1): PreNorm(
                (fn): FeedForward3D(
                  (net): Sequential(
                    (0): Conv3d(64, 256, kernel_size=(1, 1, 1), stride=(1, 1, 1), bias=False)
                    (1): GELU()
                    (2): Conv3d(256, 256, kernel_size=(3, 3, 3), stride=(1, 1, 1), padding=(1, 1, 1), groups=256, bias=False)
                    (3): GELU()
                    (4): Conv3d(256, 64, kernel_size=(1, 1, 1), stride=(1, 1, 1), bias=False)
                  )
                )
                (norm): LayerNorm((64,), eps=1e-05, elementwise_affine=True)
              )
            )
          )
        )
      )
    )
    (up2): Upsample(scale_factor=(1.0, 2.0, 2.0), mode='nearest')
    (decoder_conv2): Conv3d(64, 32, kernel_size=(3, 3, 3), stride=(1, 1, 1), padding=(1, 1, 1))
    (decoder_128): BasicBlock3D(
      (block): Sequential(
        (0): MSAB3D(
          (blocks): ModuleList(
            (0): ModuleList(
              (0): MS_MSA3D(
                (to_qkv): Linear(in_features=32, out_features=96, bias=False)
                (proj): Linear(in_features=32, out_features=32, bias=True)
                (pos_emb): Sequential(
                  (0): Conv3d(32, 32, kernel_size=(3, 3, 3), stride=(1, 1, 1), padding=(1, 1, 1), groups=32, bias=False)
                  (1): GELU()
                  (2): Conv3d(32, 32, kernel_size=(3, 3, 3), stride=(1, 1, 1), padding=(1, 1, 1), groups=32, bias=False)
                )
              )
              (1): PreNorm(
                (fn): FeedForward3D(
                  (net): Sequential(
                    (0): Conv3d(32, 128, kernel_size=(1, 1, 1), stride=(1, 1, 1), bias=False)
                    (1): GELU()
                    (2): Conv3d(128, 128, kernel_size=(3, 3, 3), stride=(1, 1, 1), padding=(1, 1, 1), groups=128, bias=False)
                    (3): GELU()
                    (4): Conv3d(128, 32, kernel_size=(1, 1, 1), stride=(1, 1, 1), bias=False)
                  )
                )
                (norm): LayerNorm((32,), eps=1e-05, elementwise_affine=True)
              )
            )
          )
        )
      )
    )
    (up3): Upsample(scale_factor=(1.0, 2.0, 2.0), mode='nearest')
    (decoder_conv3): Conv3d(32, 16, kernel_size=(3, 3, 3), stride=(1, 1, 1), padding=(1, 1, 1))
    (decoder_256): BasicBlock3D(
      (block): Sequential(
        (0): MSAB3D(
          (blocks): ModuleList(
            (0): ModuleList(
              (0): MS_MSA3D(
                (to_qkv): Linear(in_features=16, out_features=48, bias=False)
                (proj): Linear(in_features=16, out_features=16, bias=True)
                (pos_emb): Sequential(
                  (0): Conv3d(16, 16, kernel_size=(3, 3, 3), stride=(1, 1, 1), padding=(1, 1, 1), groups=16, bias=False)
                  (1): GELU()
                  (2): Conv3d(16, 16, kernel_size=(3, 3, 3), stride=(1, 1, 1), padding=(1, 1, 1), groups=16, bias=False)
                )
              )
              (1): PreNorm(
                (fn): FeedForward3D(
                  (net): Sequential(
                    (0): Conv3d(16, 64, kernel_size=(1, 1, 1), stride=(1, 1, 1), bias=False)
                    (1): GELU()
                    (2): Conv3d(64, 64, kernel_size=(3, 3, 3), stride=(1, 1, 1), padding=(1, 1, 1), groups=64, bias=False)
                    (3): GELU()
                    (4): Conv3d(64, 16, kernel_size=(1, 1, 1), stride=(1, 1, 1), bias=False)
                  )
                )
                (norm): LayerNorm((16,), eps=1e-05, elementwise_affine=True)
              )
            )
          )
        )
      )
    )
    (conv_out): Conv3d(16, 1, kernel_size=(3, 3, 3), stride=(1, 1, 1), padding=(1, 1, 1))
  )
)
[2025-05-24 13:58:10,503][train_pansharpeningNotext.py][line:174][INFO] Epoch:[0]	 PSNR_GF = 35.3254	  PSNR_QB = 36.9275	 PSNR_WV2 = 27.8033	 PSNR_WV4 = 32.8906	 BEST_GF_PSNR = 35.3254	 BEST_epoch = 0
[2025-05-24 17:20:53,251][train_pansharpeningNotext.py][line:174][INFO] Epoch:[5]	 PSNR_GF = 43.9597	  PSNR_QB = 45.8692	 PSNR_WV2 = 36.9920	 PSNR_WV4 = 40.1684	 BEST_GF_PSNR = 43.9597	 BEST_epoch = 5
…
